…
              Model Summary          
              <span className="tooltip-trigger" data-tooltip-id="summary-tooltip">?</span>
            </label>
            <textarea 
              id="summary"
              {...register('summary', { required: "Model summary is required" })}
              rows="10" 
              cols="50" 
              placeholder="Paste your model summary here. For example:
----------------------------------------------------------------
        Layer (type)               Output Shape         Param #
================================================================
            Conv2d-1            [-1, 5, 28, 28]              50
         MaxPool2d-2            [-1, 5, 14, 14]               0
            Conv2d-3            [-1, 5, 14, 14]             230
         MaxPool2d-4              [-1, 5, 7, 7]               0
           Flatten-5                  [-1, 245]               0
            Linear-6                 [-1, 1500]         369,000
            Linear-7                 [-1, 1500]       2,251,500
            Linear-8                 [-1, 5000]       7,505,000
            Linear-9                 [-1, 5000]      25,005,000
           Linear-10                   [-1, 10]          50,010
================================================================
Total params: 35,180,790
Trainable params: 35,180,790
Non-trainable params: 0
----------------------------------------------------------------
Input size (MB): 0.00
Forward/backward pass size (MB): 0.15
Params size (MB): 134.20
Estimated Total Size (MB): 134.35
----------------------------------------------------------------"
            />
…
