…
    <form className="modelSummaryForm" onSubmit={handleSubmit(onSubmit)}>
     <div className="formGrid">
        <div className="formField fullWidth">
          <label>Model Summary          
            <span className="tooltip-trigger" data-tooltip-id="summary-tooltip">?</span>
          </label>
          <textarea 
            {...register('summary')} 
            rows="10" 
            cols="50" 
            placeholder="Paste your model summary here. For example:
Layer (type)                 Output Shape              Param #   
=================================================================
conv2d (Conv2D)              (None, 222, 222, 32)      896       
max_pooling2d (MaxPooling2D) (None, 111, 111, 32)      0         
flatten (Flatten)            (None, 393248)            0         
dense (Dense)                (None, 64)                25167936  
dense_1 (Dense)              (None, 10)                650       
=================================================================
Total params: 25,169,482
Trainable params: 25,169,482
Non-trainable params: 0"
          />
          <Tooltip id="summary-tooltip" place="top" effect="solid">
            Paste the model summary from your framework. For PyTorch, use torchsummary. For TensorFlow/Keras, use model.summary().
          </Tooltip>
        </div>
…
